AutogluonModels/ag-20240602_085616/models/NeuralNetFastAImodel-internals.pkl (torch, 490900 bytes, 15 tensors)

weight f4 [444]
00000000: 104d 7d3f 6858 833f ad7d 843f eda5 7e3f
00000010: 44c1 7f3f 284b 793f f816 823f e80d 813f
00000020: 2ed5 7f3f 4246 7e3f b92b 7f3f d72a 783f
00000030: 0097 7a3f 0654 7e3f c5dd 823f d290 803f
00000040: 78db 7c3f c9c1 7d3f e35d 813f 96b8 813f
00000050: 3176 803f e496 7c3f 71a4 7c3f aaee 7c3f
00000060: d0dd 7b3f 892a 7e3f 1198 803f ebf9 803f
00000070: 13e7 7e3f 41e1 7b3f 3d2f 813f 8b7f 813f
00000080: 4b78 7b3f 9300 813f 48e7 813f 47ec 7c3f
00000090: a7d0 7e3f ce0b 843f 808d 803f 7824 813f
000000a0: f098 803f 1954 7f3f d6b1 7b3f 4a72 7a3f
000000b0: 23ae 7c3f 51ea 7b3f d4b6 7e3f 25ff 803f
000000c0: bd00 813f 0644 7f3f 1581 7b3f a3bf 7e3f
000000d0: fb51 793f 8624 833f f9e1 803f 7c24 813f
000000e0: 0227 7c3f 7a37 813f 21fc 7d3f e368 7d3f
000000f0: 0330 813f 3a67 813f 5d2a 7f3f 336a 813f
00000100: 9e08 803f 8b49 823f 194a 7d3f 1689 7b3f
00000110: 6243 7a3f e232 773f d6e2 803f a7de 803f
00000120: a357 7b3f 0579 803f 4d05 803f e279 793f
00000130: 9237 803f 7751 7c3f 190d 803f aacd 803f
00000140: 9562 7a3f c587 7e3f b7c1 803f 9394 7e3f
00000150: 71e2 7d3f f38f 813f 064a 7f3f 4ab1 7c3f
00000160: 54e5 7a3f bb81 7c3f 08e8 803f 32a9 803f
00000170: fa3f 7c3f 2fef 803f b094 813f ae7c 7f3f
00000180: 9afd 7b3f 233f 7c3f cc7a 7d3f bc3c 813f
00000190: 0a7d 793f b7f3 7b3f 28f0 803f a72c 7f3f
000001a0: 6932 7f3f dd56 7d3f 72d7 7b3f 090f 813f
000001b0: 9f2a 7d3f 63c0 7c3f 074c 7d3f 2679 7f3f
000001c0: 86d5 803f 1f42 7e3f c935 7a3f fbda 803f
000001d0: 3489 803f b405 7a3f 7429 813f 86b5 7d3f
000001e0: da7a 813f 7817 7d3f dcf6 7a3f 734f 833f
000001f0: 149f 833f dc93 7c3f 8872 833f eda4 7d3f
00000200: fcee 7c3f 89ac 7f3f f9c7 823f 07e4 7c3f
00000210: c625 813f b26a 803f de91 7f3f 2ef7 7e3f
00000220: 5a4d 803f 2219 7d3f 73b2 803f c636 7b3f
00000230: 44d4 803f d48b 7c3f 8992 7b3f 2b24 7a3f
00000240: bda7 803f a858 7d3f 5e04 823f f3f7 7e3f
00000250: 869d 813f 67ef 803f 33a8 813f c23d 7a3f
00000260: 3505 803f 7858 7d3f 9bab 7a3f 2725 7f3f
00000270: 105d 753f e42f 7c3f 230a 803f bf7e 7d3f
00000280: 725b 813f 47d5 813f 2f03 803f 7b7b 7d3f
00000290: 3eae 7d3f 16ac 823f 374c 803f 781e 823f
000002a0: d5d7 7f3f 65fe 833f dd18 833f 5fee 823f
000002b0: 3017 833f 6b2b 7b3f 3d94 7c3f b2c7 853f
000002c0: b010 823f 81e2 813f 75d6 803f cab6 813f
000002d0: 0cba 7f3f 1635 7f3f 405c 823f aab9 813f
000002e0: 4e85 853f 44d1 833f cbe9 7c3f e6ac 8b3f
000002f0: daf2 803f eeee 853f c3da 863f 1839 853f
00000300: 38a7 833f 1021 833f 00b3 883f b249 853f
00000310: 1d53 853f 52f8 813f 940e 833f 4610 843f
00000320: aee6 883f 0d6b 893f 984e 813f a381 833f
00000330: 28ff 863f 6918 813f 9b85 833f e533 863f
00000340: 3bd5 803f 5088 803f c1cc 7d3f 791a 803f
00000350: 58e0 823f 1a83 813f 4eb9 7e3f 50a5 7e3f
00000360: 3850 803f 284d 7c3f 3751 803f 6180 7a3f
00000370: a6d9 763f c792 813f bcf1 803f 9aa1 813f
00000380: c515 823f b6a0 7c3f d7b4 813f 6657 823f
00000390: 9729 813f 91c5 853f 8948 823f 243a 7b3f
000003a0: 0775 823f fac1 7e3f ad65 813f 46c8 7d3f
000003b0: aec8 7a3f 158c 7e3f 1a62 7b3f cd4c 7d3f
000003c0: adf2 7f3f 5058 7e3f bdfe 7d3f 208b 7c3f
000003d0: ace9 813f 0e46 7d3f 4d81 7c3f f23d 803f
000003e0: 9ace 813f 4ac2 7c3f 8391 813f 965a 7d3f
000003f0: 6775 803f 0ace 813f edc6 803f 4e81 813f
0.98945713 1.0261354 1.0350853 0.9947193 0.99904275 0.97380304 1.016326 1.0082369
0.9993466 0.99325955 0.9967609 0.9694037 0.9788666 0.9934696 1.0223929 1.0044196
0.9877238 0.9912382 1.0106777 1.0134456 1.0036069 0.9866774 0.9868842 0.9880167
0.98385334 0.99283653 1.0046407 1.0076269 0.9957134 0.98390585 1.0092541 1.0117048
0.9823043 1.00783 1.0148706 0.9879803 0.9953713 1.0316103 1.0043182 1.0089254
1.0046673 0.997377 0.9831823 0.9783064 0.9870321 0.98404413 0.99497724 1.0077864
1.007835 0.9971317 0.9824384 0.99511164 0.9739072 1.0245521 1.0068961 1.0089259
0.9849702 1.0095055 0.99212843 0.9898817 1.0092777 1.0109627 0.99674016 1.0110534
1.000263 1.0178694 0.9894119 0.9825605 0.9775907 0.96562016 1.0069225 1.0067948
0.981806 1.0036932 1.0001618 0.97451603 1.0016959 0.98561805 1.0003997 1.0062764
0.97806674 0.9942592 1.0059117 0.99445456 0.9917365 1.0122055 0.99722326 0.9870802
0.98006177 0.98635453 1.007081 1.0051634 0.9853512 1.0072993 1.0123501 0.9979962
0.9843384 0.9853384 0.990155 1.009666 0.9745642 0.98418754 1.007329 0.9967751
0.99686295 0.9896067 0.9837562 1.0082713 0.9889316 0.9873106 0.98944134 0.9979423
1.0065162 0.9931964 0.9773832 1.0066828 1.0041871 0.9766495 1.0090775 0.9910511
1.0115616 0.98863935 0.9803293 1.0258621 1.0282922 0.98663116 1.0269327 0.9907978
0.9880216 0.9987264 1.0217277 0.9878544 1.0089653 1.0032561 0.9983195 0.99595916
1.0023606 0.98866475 1.0054458 0.9813045 1.0064778 0.9865086 0.9827047 0.9771144
1.005119 0.98963404 1.0157583 0.9959709 1.0126197 1.007306 1.0129455 0.97750485
1.0001589 0.9896312 0.979181 0.99666065 0.9584513 0.98510575 1.0003093 0.99021524
1.0106032 1.0143212 1.0000972 0.9901654 0.99094 1.0208766 1.0023259 1.0165548
0.9993871 1.031201 1.0241963 1.0228995 1.0241451 0.98113126 0.98663694 1.0451567
1.0161343 1.0147249 1.0065447 1.0133908 0.9989326 0.9969038 1.0184402 1.0134785
1.0431306 1.0298238 0.9879424 1.091214 1.0074112 1.046354 1.0535511 1.0408049
1.0285406 1.0244465 1.0679626 1.0413115 1.0415989 1.0153906 1.0238824 1.0317466
1.0695398 1.0735794 1.010211 1.0273937 1.0546618 1.0085574 1.0275148 1.0484587
1.0065073 1.0041599 0.99140555 1.0008079 1.0224714 1.0118134 0.995015 0.99470997
1.0024481 0.9855523 1.0024785 0.9785214 0.96425855 1.0122918 1.0073771 1.0127442
1.0162894 0.98682725 1.0133313 1.0182922 1.0090817 1.0450917 1.0178386 0.9813559
1.0191964 0.99514735 1.0109154 0.9913372 0.9796246 0.994325 0.98196566 0.98945314
0.9997967 0.99353504 0.99216825 0.9864979 1.0149436 0.9893502 0.986348 1.0018904
1.0141175 0.9873396 1.0122532 0.9896635 1.0035828 1.0141003 1.0060707 1.0117586

bias f4 [444]
00000000: 1daa 4dbd c0cd 85bb 0bb4 52bd fd51 1a3c
00000010: ab20 acbb 787f 5e3b 59e0 9ebc 93d0 583c
00000020: 064f 71bb 0d75 24bd 3156 703c f847 22bc
00000030: a708 263c 7b3d e6b9 9a76 aabb a3be d4bb
00000040: 3179 e8bc a57e 9bbc 2804 6dbc 2268 e93c
00000050: 690d 2ebc 0308 223b f17a 8f3c 9b9f 7cbc
00000060: cee1 3e3c 22df 3b3c 2969 433b ec18 f5bb
00000070: e20e 423c 55a0 3d3c 8eca 5c3c f02e acbb
00000080: d0bd 9c3b 7579 d3bb fb69 343c bca6 b43b
00000090: 653a ccbc ec99 d6bb a42a 3a3a 32cd 21bd
000000a0: 9ce8 8c3c 7670 0c3b 1941 df3b 1ec8 34bc
000000b0: 0c42 8e3c f18f 6c3c 120c a43c 1d88 1ebc
000000c0: 8c5e 7ebc d06a 08bc f5fc 85bb 0552 a6bc
000000d0: e0a9 05bc d2e2 963b 3e8a 79bc ed9b 4a3c
000000e0: 4e3e 03bd 6c4e 98bc 597a 93bc 7827 f03a
000000f0: 8e98 a43b 13e2 683c 1c6b 903b 324c f13a
00000100: 48f7 48bb 15f9 2f3c a8f0 1fbc 359e a93c
00000110: 761e a83c a8ea 503c 32d1 10ba 8e40 803b
00000120: b5c6 783b 1edb 8a3c 6ab0 863c f7e3 583b
00000130: e0fa 28bc 5b6a 9ebc fbac ddbb df3d ec3a
00000140: faa3 6d3c 7365 b4bc 8776 6b3c d169 e8bc
00000150: ad72 ebbc a866 08bc ec69 fc3b 3d7e 043c
00000160: 1e1a c93c 0c37 d2bb 075b 60bc e8f2 62bb
00000170: 4bda f43c 2a8d 323d 3b70 083d e503 03ba
00000180: a598 b83a 03ac 883c 222d 67bc e958 993c
00000190: f54f 833b da51 813c aa60 f03b a4ee 323c
000001a0: 61d5 95bb a3bf 7e3b 890b 0f3d 4e18 683c
000001b0: ec53 f23a a281 c8bb f094 c83c 97be 7f3c
000001c0: 8c44 d6bb 679a 2c3c 9275 dc3b db20 113d
000001d0: 2c42 d2ba 1920 83bc 6a44 33bb 5c1d 493d
000001e0: 3ace e93c dfe0 113c 4325 71bc e114 c93c
000001f0: 9459 3b3c fc4b 883c 42da b5ba 3d1b 2a3c
00000200: 01db d73c 7176 3a3d 9060 25bc 4e7d 823b
00000210: d454 e63c 1cb9 773c 1022 ab3c 2f79 1e3c
00000220: ae78 84bc dc88 1f3d a48e 06bc 9297 6ebc
00000230: 7bea 8b3c 65c3 663c dbe8 b83c e3e9 a03b
00000240: 9a9a 54ba 2ca9 a13c 00eb 813c 715e 163d
00000250: ad45 513c 7f1f 1abc b854 d53c 20b5 423c
00000260: 2626 3dbc bc81 213c cfd8 9e3c 3f34 1abc
00000270: 3e42 8fbb b2b7 b03b fadb 71bc a436 c4bc
00000280: dfbb 863c 04c0 84bc 7967 b33a 2e23 e23b
00000290: 77a9 f238 8efd 2dba a7c3 dd38 b2a5 5abc
000002a0: d72a 2bbd 549a 9abc 1431 333c 4cbc 123b
000002b0: 3708 c43a 05d1 fdbc cd77 80bb bb76 dfba
000002c0: e68e acbc d8a9 d3bb d47e dabc 4b97 bdbc
000002d0: 239b 5cbc d747 0a3c bc18 e2bb f9f6 f9bc
000002e0: 5520 9abc feb2 4fbd 633b 8c3c fe59 1abd
000002f0: ba1b a0ba 6169 09bd 568e 54bc 9e03 67bd
00000300: 6d72 29bd 9346 7cbc 570d 6e3c c7a1 8d3b
00000310: f20c 31bd aee3 e8bc dbf4 50bc f6e4 58bc
00000320: c2d9 173c 22af 80bc 4972 ccbc 60fa bf3b
00000330: 9ed6 d53b 2230 28bc eb4c baba 56da dbbc
00000340: bdc3 e93a 42ee b0bc 519c d53b 90f8 9dbc
00000350: cb8c a0bb 66a5 12bc 54e4 923c bcd8 913c
00000360: 8afd cf3b 2b5a 2f3c affb 7e3c 0198 b93c
00000370: 3f94 a53c db3e 75bc 64f4 a03c 2445 de3c
00000380: 76e6 b0bb d0cf 173d cfbe 863a 9b35 8d3c
00000390: 023b e3bb 30e8 babb 9409 873c 0026 5ebc
000003a0: 1e74 ef3c 90d6 ddbc eb75 24bc 7d19 c13c
000003b0: dbb4 06bc 1445 85bc a386 00bb 8c83 923c
000003c0: 71c1 fd3c 937d 9f3c 0909 b73b b952 5e3c
000003d0: 78c1 ebbb bb44 b33c e6e1 383b 695e 40bc
000003e0: 0c14 c4ba a745 7cbc 3d08 e6bb 0209 8abb
000003f0: 0112 3e3c 8515 7fb9 b467 e8bb f39b 4e3c
-0.05021106 -0.004083365 -0.051441234 0.009418962 -0.0052529178 0.003395049 -0.019394087 0.013233322
-0.0036820783 -0.04015069 0.014668987 -0.009904854 0.010133899 -0.00043914825 -0.0052021267 -0.006492452
-0.028378101 -0.018981287 -0.014466323 0.028492037 -0.010623314 0.0024724014 0.017514678 -0.015418912
0.011650516 0.011466773 0.002981732 -0.0074797776 0.011844369 0.011573871 0.013476027 -0.005254619
0.0047833696 -0.006453688 0.011011596 0.0055130403 -0.024930188 -0.0065491106 0.0007101691 -0.03950233
0.01720076 0.0021429337 0.00681318 -0.01103404 0.017365478 0.014438615 0.020025287 -0.009676007
-0.015525471 -0.008326247 -0.0040889927 -0.020302782 -0.008158177 0.004604676 -0.015230713 0.012366277
-0.03204184 -0.018592082 -0.018002676 0.001832231 0.0050230687 0.014214057 0.0044072997 0.0018409549
-0.003066497 0.010740538 -0.009761967 0.020705322 0.020522337 0.012751259 -0.00055243366 0.0039139455
0.0037960235 0.016950186 0.016441543 0.0033094862 -0.0103137195 -0.019337824 -0.0067650056 0.001802381
0.014504427 -0.022021031 0.014371521 -0.02837077 -0.028741205 -0.008325256 0.0077030566 0.008086738
0.024548586 -0.0064152535 -0.013693578 -0.0034629647 0.029889246 0.043591656 0.033310156 -0.0004997834
0.0014083578 0.016683584 -0.014109882 0.018719153 0.0040073344 0.0157861 0.007335742 0.010921154
-0.004572556 0.0038871549 0.03492311 0.014165951 0.0018488145 -0.006118969 0.024485081 0.015609405
-0.006538933 0.010534859 0.0067278827 0.035431724 -0.0016041449 -0.016006516 -0.002735401 0.049100265
0.02854072 0.008903711 -0.014718357 0.024546089 0.011434931 0.016637795 -0.001387425 0.010382471
0.026349546 0.04552311 -0.010093823 0.0039822226 0.028116621 0.015119817 0.020890266 0.009672447
-0.016170826 0.03894888 -0.008212719 -0.014562504 0.017079582 0.014084672 0.022571972 0.004910694
-0.00081101956 0.019733988 0.015859127 0.03671116 0.01277296 -0.009406923 0.026041374 0.011884004
-0.01154474 0.009857591 0.019390492 -0.0094118705 -0.0043719104 0.005392992 -0.014761919 -0.023951836
0.016447006 -0.016204841 0.0013687453 0.0069011664 0.000115710245 -0.0006637209 0.00010574544 -0.013345169
-0.041788902 -0.018872418 0.010936994 0.0022390066 0.0014956061 -0.030983457 -0.0039205314 -0.0017048934
-0.021064233 -0.006459456 -0.026671804 -0.023143431 -0.013464722 0.0084399795 -0.006899921 -0.030513274
-0.018814245 -0.05070781 0.017118162 -0.03768348 -0.0012215294 -0.033547763 -0.012973389 -0.056399934
-0.04136889 -0.015397686 0.014529548 0.004322264 -0.043225236 -0.028428879 -0.012753691 -0.013238182
0.009268226 -0.01570851 -0.02495684 0.0058587044 0.0065258285 -0.010265382 -0.0014213597 -0.02683751
0.0017834824 -0.021597985 0.0065188785 -0.019283563 -0.0048995963 -0.008950567 0.017931141 0.017803542
0.006347363 0.01070265 0.015562936 0.022655489 0.02021229 -0.014968599 0.019647785 0.027132578
-0.005398567 0.03706342 0.0010280254 0.017237475 -0.0069345245 -0.0057039484 0.01648406 -0.013558865
0.029230174 -0.02707985 -0.010037879 0.023571724 -0.00822183 -0.01626829 -0.00196115 0.017884992
0.03097603 0.019469058 0.005585794 0.013569527 -0.007194694 0.02188336 0.0028210818 -0.011741259
-0.0014959588 -0.015397466 -0.007020025 -0.0042124996 0.011600972 -0.00024326712 -0.0070924405 0.012610423

running_mean f4 [444]
00000000: cb22 803b 2f4c 923b 9704 a53b 1b43 b83b
00000010: 39fe cb3b 612b e03b 31bf f43b b7d6 043c
00000020: 8074 0f3c ec31 1a3c 9107 253c b026 2f3c
00000030: 9528 3a3c 7e51 453c 5595 503c 072b 5c3c
00000040: 4c11 673c f944 723c 164c 7e3c 28ae 843c
00000050: 3cc0 893c 9c43 8e3c 5405 923c 75e7 943c
00000060: 2aba 973c 8b98 9a3c 027f 9d3c 9f84 9f3c
00000070: 3657 a13c a0b0 a23c 7232 a43c 3e66 a53c
00000080: fcc3 a63c fe0a a83c 1ccb a93c 9257 ab3c
00000090: 100e ad3c b609 af3c 1a97 b03c dadf b03c
000000a0: a55e b13c 1da9 b13c 6de4 b13c 116e b23c
000000b0: 4212 b33c 201c b33c 7ee5 b23c 7771 b23c
000000c0: 70ed b13c 0122 b13c 17ad b03c fec8 af3c
000000d0: f9d8 ae3c 2195 ad3c ae96 ac3c bd73 ab3c
000000e0: aa1f ab3c b5f5 aa3c 5409 aa3c e3cc a83c
000000f0: 41e9 a73c 45d5 a63c 4c7d a53c 3c31 a43c
00000100: 1af7 a23c 1ef2 a13c 4ee2 a03c 25e6 9f3c
00000110: 435c 9e3c 3bc8 9c3c 05e1 9a3c e319 993c
00000120: a1f1 963c 9ee7 943c 17e9 923c a553 913c
00000130: 8901 903c da0c 8e3c 9baf 8b3c 1d61 893c
00000140: 53b3 863c 97bf 833c 69bf 803c 2e01 7d3c
00000150: c902 793c 7b41 753c 7ebf 713c efe5 6d3c
00000160: 86c7 693c 924b 663c c5ec 623c f64b 5f3c
00000170: 60a0 5b3c 8f87 583c ec4e 553c a008 523c
00000180: 91ec 4d3c 7548 493c 992b 453c 020b 413c
00000190: 366a 3c3c e263 373c bf63 323c 3a58 2e3c
000001a0: 00fe 293c 31d3 253c 90fc 213c 6838 1e3c
000001b0: 22a5 1a3c b7fb 163c ac62 133c 96b6 0f3c
000001c0: f6bc 0c3c 01aa 093c 031e 063c 0293 023c
000001d0: 3d75 fd3b 8f11 f53b a009 ee3b 099f e73b
000001e0: d82a df3b 8867 d53b eb80 cc3b 34e5 c33b
000001f0: b01c ba3b b6c3 ae3b 2082 a43b 8466 9b3b
00000200: 8520 913b fb44 873b 9a0d 0b3b b0f5 f13a
00000210: 5b93 d63a ca08 be3a 8977 a43a 642e 8a3a
00000220: d803 6b3a 4ae4 333a ae53 e039 fafd 4d39
00000230: 66cb a6b7 e39c 8eb9 30b2 0dba 48b7 5dba
00000240: a7fb 9bba 53a1 cbba 8a71 fdba 971b 1abb
00000250: d649 3abb f925 5dbb 482a 7ebb c4af 90bb
00000260: 93b9 a0bb 9ce0 afbb d26a bfbb 65b7 d0bb
00000270: 088d debb e3c1 edbb 99ca fcbb 3c2e 05bc
00000280: a3df 0bbc ac86 12bc 4635 18bc aa1a 1ebc
00000290: 2df9 23bc af3d 29bc faee 2dbc a407 33bc
000002a0: 5c62 38bc bf51 3dbc 9b18 42bc af29 47bc
000002b0: 3ccb 4bbc 5a5b 50bc 8e63 55bc 795d 5abc
000002c0: 761c 5fbc 3e66 63bc cc84 67bc ec8a 6bbc
000002d0: cbfd 6ebc ab88 72bc ef28 75bc a0c9 77bc
000002e0: 089c 79bc f414 7bbc aa2e 7cbc 3115 7dbc
000002f0: 8c3f 7ebc 0ffd 7ebc 5938 80bc efe2 80bc
00000300: 7551 81bc 31ed 81bc 4697 82bc 9a1e 83bc
00000310: 34fc 83bc 6fd3 83bc 72aa 83bc 995c 83bc
00000320: 6c36 82bc 7e6e 80bc 64c3 7cbc fc89 77bc
00000330: d04b 70bc 840c 68bc 85f0 5dbc 4d7b 52bc
00000340: 15ae 45bc 67da 37bc 6946 2abc 4fc5 1abc
00000350: 3898 0bbc a7c1 fbbb e45d ddbb bedb bebb
00000360: e5bc a5bb e471 85bb 2b0a 4dbb 75b3 14bb
00000370: 03e2 b5ba 78f9 07ba 4035 a039 81e1 8b3a
00000380: c578 f63a e0da 2e3b 774b 5f3b d0f8 853b
00000390: e6f5 9a3b d0f1 ab3b 02c5 ba3b 6ee8 c63b
000003a0: 2da9 d43b 945f e13b 3704 f03b c12e fa3b
000003b0: 1d1a 033c 0004 0b3c 1f3e 123c 3976 173c
000003c0: 3f26 1e3c c3be 233c fec7 283c a939 2d3c
000003d0: 04e8 333c fd59 393c 64e7 3d3c b797 403c
000003e0: a888 423c 6c11 463c 302f 493c c5ab 4c3c
000003f0: 8f76 523c b074 553c ea9b 563c 0481 583c
0.0039103976 0.004464648 0.0050359475 0.005623234 0.006225374 0.0068411087 0.007469081 0.008107833
0.008755803 0.009411316 0.010072605 0.010690376 0.011362215 0.012043355 0.012730916 0.013437993
0.014103245 0.014786952 0.01552107 0.016196325 0.016815297 0.017366223 0.017824806 0.018176774
0.018521387 0.018871566 0.019225601 0.019472418 0.019694906 0.019859612 0.020043585 0.020190354
0.020357125 0.020513054 0.020726733 0.02091578 0.02112487 0.021366935 0.021556426 0.021591116
0.021651575 0.021687085 0.021715367 0.021781 0.021859292 0.021863997 0.021837946 0.02178262
0.021719664 0.02162266 0.02156691 0.021458145 0.021343695 0.021189274 0.021067943 0.020929212
0.020889122 0.020869115 0.020756401 0.02060551 0.020496966 0.020365367 0.020201348 0.020043008
0.019893218 0.01976877 0.01963916 0.019518921 0.019331103 0.019138446 0.018906126 0.018689102
0.018425765 0.01817685 0.017933412 0.01774008 0.017578857 0.017340112 0.017051509 0.01676994
0.01644293 0.016082568 0.015716271 0.015442176 0.015198418 0.014969225 0.014755128 0.0145201525
0.0142687615 0.014056103 0.013850396 0.01362895 0.013404936 0.013215913 0.013019305 0.012819439
0.012568609 0.0122853415 0.01203432 0.01178241 0.011499932 0.0111932475 0.010888039 0.010641152
0.0103755 0.010121153 0.009886876 0.009657003 0.009438785 0.009215287 0.008995693 0.008771559
0.008589974 0.0084023485 0.008185866 0.00796962 0.007734923 0.0074789 0.007264331 0.007068519
0.0068105273 0.006512586 0.006240954 0.005978251 0.0056796893 0.005333389 0.005020395 0.0047424454
0.0044289255 0.004128096 0.0021217824 0.0018460061 0.001637082 0.0014498469 0.0012547831 0.001054239
0.00089651113 0.0006862326 0.00042786956 0.00019644937 -1.9883457e-05 -0.0002720124 -0.0005405275 -0.0008457792
-0.001190056 -0.0015535749 -0.0019336205 -0.002351498 -0.0028425357 -0.0033744557 -0.0038782526 -0.004415484
-0.0049049347 -0.0053673517 -0.0058415914 -0.0063695186 -0.0067917146 -0.007255779 -0.007714581 -0.008128699
-0.008537206 -0.008943241 -0.009290045 -0.009649912 -0.010008139 -0.010329648 -0.0106160585 -0.010927115
-0.011253919 -0.011555134 -0.011846687 -0.012155934 -0.012438592 -0.012717092 -0.013024224 -0.01332795
-0.013617625 -0.013879357 -0.014130782 -0.014376383 -0.014586876 -0.014803092 -0.014963373 -0.015123755
-0.015234955 -0.01532482 -0.015391985 -0.015446947 -0.01551808 -0.015563264 -0.015651869 -0.01573321
-0.015785912 -0.015860172 -0.015941273 -0.016005803 -0.01611147 -0.01609203 -0.016072486 -0.016035365
-0.015895091 -0.015677687 -0.015427444 -0.015108582 -0.014666513 -0.01416314 -0.013546114 -0.01284678
-0.01206543 -0.011221505 -0.010392764 -0.009446456 -0.0085201785 -0.0076829973 -0.0067555774 -0.005824535
-0.0050579184 -0.0040724147 -0.0031286578 -0.0022689973 -0.0013876561 -0.0005187015 0.00030557252 0.0010672064
0.0018804303 0.0026680753 0.003407208 0.0040884987 0.0047290204 0.005247332 0.0056997547 0.0060701882
0.006489894 0.006877849 0.007324721 0.007634968 0.008001831 0.00848484 0.008925944 0.009244495
0.009652673 0.009994212 0.010301588 0.010572829 0.01098061 0.011312959 0.011590812 0.011754922
0.011873402 0.012089115 0.012279317 0.012492125 0.012845649 0.013028309 0.013098696 0.0132143535

running_var f4 [444]
00000000: 735e 823f 4a67 823f dd6d 823f 6072 823f
00000010: 0d75 823f 1a76 823f c575 823f 4674 823f
00000020: d671 823f b16e 823f 0b6b 823f 7b65 823f
00000030: 9b64 823f 0162 823f 9758 823f 1d50 823f
00000040: ea4d 823f 5f51 823f e858 823f 3764 823f
00000050: f16d 823f 757d 823f f08c 823f c89a 823f
00000060: cea4 823f 28af 823f 7cb5 823f 93b8 823f
00000070: ffbb 823f bec3 823f 8dc8 823f 53c9 823f
00000080: 42cb 823f c7cc 823f 78cd 823f 46d1 823f
00000090: bbd4 823f eed6 823f f0da 823f 74db 823f
000000a0: 14dd 823f 91e1 823f 37e5 823f a8e5 823f
000000b0: 47e7 823f c1e7 823f 17e6 823f 83e6 823f
000000c0: 7ae6 823f 23e4 823f 42dc 823f 0ad1 823f
000000d0: 3ec8 823f 8ebf 823f 2bb7 823f 1cb3 823f
000000e0: beaa 823f 09a0 823f ca96 823f 068f 823f
000000f0: 148a 823f 9d83 823f c67d 823f d079 823f
00000100: 9575 823f 546e 823f f466 823f 005f 823f
00000110: 8151 823f a142 823f db30 823f c31c 823f
00000120: 2f09 823f 26f7 813f e7e6 813f 23d4 813f
00000130: f1bb 813f 33a6 813f 0292 813f 8580 813f
00000140: 416e 813f 0158 813f 8141 813f cc2e 813f
00000150: 101b 813f ec07 813f 66f7 803f d0e5 803f
00000160: 63d2 803f 2ebf 803f 59ab 803f 499a 803f
00000170: 5f89 803f 067a 803f 526b 803f b55c 803f
00000180: 3550 803f fb46 803f e43d 803f c236 803f
00000190: 2f2b 803f 021f 803f 3315 803f d30d 803f
000001a0: b204 803f 5df8 7f3f 30e4 7f3f 34cd 7f3f
000001b0: 64b4 7f3f 7b9b 7f3f 3a85 7f3f ad71 7f3f
000001c0: 0359 7f3f 1b43 7f3f 232f 7f3f f11f 7f3f
000001d0: 5215 7f3f 6712 7f3f a70d 7f3f 8b09 7f3f
000001e0: c202 7f3f ae00 7f3f 92fe 7e3f 42fd 7e3f
000001f0: a4fd 7e3f d405 7f3f 200e 7f3f 9c1b 7f3f
00000200: 992b 7f3f 2d3c 7f3f 70c7 7f3f a5e4 7f3f
00000210: 1100 803f 490e 803f 341c 803f ba2a 803f
00000220: 5e38 803f ac48 803f 495d 803f fd73 803f
00000230: 8a89 803f 62a3 803f 6abe 803f afda 803f
00000240: fbf6 803f e318 813f 903b 813f 6160 813f
00000250: e189 813f a3b5 813f 12e2 813f 9215 823f
00000260: cd49 823f be7b 823f 78af 823f 0ee5 823f
00000270: 0d16 833f 624b 833f 257d 833f 32ae 833f
00000280: 32db 833f 0d0d 843f fe36 843f 5260 843f
00000290: 0286 843f e2aa 843f 48cb 843f 0feb 843f
000002a0: 8906 853f 491b 853f ea2b 853f 743c 853f
000002b0: 8e45 853f 6e4a 853f 9f4e 853f dc4a 853f
000002c0: 6546 853f 383e 853f b62f 853f 6624 853f
000002d0: 6812 853f 0604 853f 9ef1 843f 8de5 843f
000002e0: 5ed5 843f 9bc7 843f 9bba 843f acaf 843f
000002f0: 92a8 843f aca3 843f a5a7 843f 7cb0 843f
00000300: 56bb 843f 50cf 843f 9beb 843f fe0e 853f
00000310: a642 853f 9372 853f 66a9 853f 36e7 853f
00000320: 3021 863f 9f56 863f fe88 863f 62b1 863f
00000330: 9fca 863f c8dc 863f 86e3 863f 69dd 863f
00000340: b6c4 863f 6199 863f 4965 863f 351e 863f
00000350: 29d3 853f a68b 853f 2139 853f 0ee1 843f
00000360: 4e97 843f 7242 843f 44f6 833f 24b2 833f
00000370: 346e 833f 162f 833f 70f9 823f f3c7 823f
00000380: 8b98 823f e96b 823f 2242 823f 371d 823f
00000390: d2fa 813f adde 813f 3cc4 813f 2eab 813f
000003a0: d295 813f 7681 813f 0a69 813f 3355 813f
000003b0: 0d48 813f 4338 813f 8f2e 813f e425 813f
000003c0: e418 813f 8e10 813f e20b 813f 0305 813f
000003d0: 52fc 803f aaf8 803f 9cf8 803f 2afd 803f
000003e0: 0201 813f a500 813f 3f00 813f 52ff 803f
000003f0: 10fe 803f 7efd 803f 47fe 803f dbfc 803f
1.0185074 1.0187771 1.0189778 1.0191154 1.0191971 1.0192292 1.019219 1.0191734
1.019099 1.019003 1.0188917 1.0187219 1.0186952 1.0186158 1.0183285 1.0180699
1.0180027 1.0181082 1.0183382 1.0186833 1.0189801 1.0194536 1.0199261 1.0203485
1.0206544 1.0209703 1.0211635 1.0212578 1.0213622 1.0215986 1.0217453 1.0217689
1.0218279 1.0218743 1.0218954 1.0220115 1.022117 1.0221841 1.0223064 1.0223222
1.0223718 1.0225087 1.0226201 1.0226336 1.022683 1.0226976 1.0226468 1.0226597
1.0226586 1.0225872 1.0223467 1.0220044 1.0217359 1.0214708 1.0212148 1.021091
1.0208356 1.0205089 1.0202267 1.0199897 1.0198388 1.0196415 1.0194633 1.0193424
1.0192133 1.018992 1.0187669 1.0185242 1.0181123 1.0176584 1.017116 1.0165027
1.0159053 1.0153549 1.0148591 1.0142864 1.013548 1.0128845 1.0122683 1.0117346
1.0111772 1.0104982 1.0098115 1.0092406 1.0086384 1.0080543 1.00755 1.0070133
1.0064205 1.0058343 1.0052291 1.0047084 1.0041922 1.0037239 1.0032752 1.0028292
1.0024477 1.0021662 1.0018888 1.0016711 1.0013179 1.0009463 1.000647 1.0004219
1.0001433 0.9998835 0.9995756 0.9992249 0.9988463 0.9984662 0.9981266 0.9978283
0.99745196 0.9971177 0.996813 0.99658114 0.9964191 0.99637455 0.99630207 0.99623936
0.99613583 0.9961041 0.99607193 0.9960519 0.99605775 0.9961827 0.9963093 0.99651504
0.996759 0.99701196 0.9991369 0.9995826 1.000002 1.000436 1.0008607 1.0013039
1.0017202 1.0022178 1.0028468 1.0035397 1.0041974 1.004986 1.005811 1.0066737
1.0075372 1.008572 1.0096302 1.0107538 1.0120202 1.0133556 1.0147116 1.0162833
1.0178772 1.0194013 1.0209799 1.0226152 1.0241104 1.025738 1.0272566 1.0287535
1.0301268 1.0316483 1.0329282 1.0341895 1.0353396 1.0364649 1.0374537 1.0384234
1.0392619 1.0398952 1.0404027 1.0409074 1.0411851 1.0413339 1.0414618 1.041347
1.0412108 1.0409613 1.0405185 1.0401733 1.0396242 1.0391853 1.0386236 1.0382553
1.0377614 1.0373415 1.0369447 1.0366111 1.0363944 1.0362449 1.0363661 1.0366359
1.036967 1.0375767 1.0384401 1.03952 1.0410964 1.042559 1.0442321 1.0461185
1.0478878 1.0495185 1.0510557 1.0522883 1.0530585 1.0536127 1.0538185 1.0536319
1.0528781 1.0515558 1.049966 1.0477968 1.0455066 1.0433242 1.0408059 1.0381181
1.0358675 1.0332778 1.0309529 1.0288739 1.0268006 1.0248744 1.0232372 1.021727
1.0202802 1.0189182 1.0176432 1.0165166 1.0154669 1.014608 1.0138011 1.0130365
1.0123847 1.0117633 1.011018 1.0104126 1.0100113 1.0095295 1.0092334 1.0089688
1.0085721 1.0083177 1.0081751 1.0079654 1.0077002 1.0075886 1.007587 1.007726
1.0078433 1.0078322 1.00782 1.0077918 1.0077534 1.007736 1.0077599 1.0077165

weight f4 [200, 444]
00000000: 30e4 7bbc 79fd 243c c861 5fbd c44f 4fbd
00000010: d649 0cbd ce58 66bb 0f5b 8ebc 7966 ab3c
00000020: ffea aabc eb84 88bb 31f7 fdbc bdf8 d2bc
00000030: babf 7bbd 0a86 42bd 79af 11bd 5ca5 67bc
00000040: e6ae 553b 0101 593c cb98 3fbd e3df 0ebd
00000050: ff19 5a3b 71c5 d33c e576 bbbc 4cbb b93c
00000060: ac81 a2bc 04b5 debb 09f4 003d 3749 60bd
00000070: 1514 24bd 1641 b2bc 53c0 e4bc ba82 013d
00000080: 4fcf 1ebd 6d5b f4bc ac62 28bd b603 56bd
00000090: 956b 11bd d592 053d 6c3b 563c 6826 713c
000000a0: bc32 bcbb 2f23 05bd d6c1 7eb9 28d9 56bd
000000b0: aca6 2ebd af0e 06bd 626a b03c 365c 9f3c
000000c0: 5722 efbc c845 21bc 2c59 b53c 1332 1f3d
000000d0: 4fee 2f3c 0c3e edba f035 c13c 8d17 13bd
000000e0: 469d 3f3a bf28 38bd 4a83 28bd cb87 06bd
000000f0: ccdf 513c df44 273c ce5c 17bd 708c a73b
00000100: 5be3 883c 0bce 7abc 8701 f6bb 19de e23a
00000110: 6835 a53c a3c3 143d fecc 3abd 46c8 d7bc
00000120: 4951 1f3c 39ef f83c df44 053d 0c13 083d
00000130: 2bb6 643a c32d 4bbd 5ec2 88bb f53a 1cbd
00000140: 2eae 57bd 58fd 073d 6fdd db3c d4b3 67bd
00000150: 7e96 3bba 4640 91bc 7b1f 90bc a463 01bd
00000160: 067f 023c 7a55 1ebd 9494 d03b b966 513c
00000170: 1bf0 b93c f412 d13b 928f 6ebd 16ad 2cbd
00000180: 71d5 453c a776 deba e002 47bd 7fd1 1fbd
00000190: f42d 063d 468d a33c d74b 06bd 861b c5bc
000001a0: 5a4f 6abd d2b9 52bc 7ea4 42bd 7e9b 46bd
000001b0: 5b5c 6ebc ae60 9dbb 03a9 ffbc 7f8f 863c
000001c0: 6c5f 25bd b0f1 003d e1d7 ac3c f90c 52bd
000001d0: c2ac bcbc f40a 11bc 3299 88bb ac65 7739
000001e0: 1921 f53b 5226 05bc c6a8 0bbd f737 363c
000001f0: 1720 68bd 04f7 1fbd 90de bcbc 1baa 0bbd
00000200: 8db4 e2bc c1ec 4cbd 6077 b2bc 674b c9ba
00000210: 0f39 2ebd 50d0 67bc 7032 b63c 6607 88bc
00000220: 002f 2ebc b6c2 82bc 9674 22bb 9088 943c
00000230: 664b 063d d7da 933c 352f 063d a7b4 81bc
00000240: 84d7 62bd 95ae 11bd 3467 973c 5270 6ebc
00000250: 9c5f 1dbd 4a69 53bd fcf4 76bd a041 66bd
00000260: 2a57 dabc e481 083c 1f43 f03b 9f2e 84bd
00000270: 4bb4 253c ad46 69bd 92df fabc 85e4 23bd
00000280: 34ce f9bc ae43 febc 042d 84bd c368 81bd
00000290: 7b4f f5bc 676f bcbc e5f0 38bd 98f8 c1bb
000002a0: fb73 87bd eb9f dabc 2203 963c 75a5 2dbd
000002b0: cad9 a13c 2815 b8bb c8e1 85bd 5023 ee3b
000002c0: 69d2 e4bc 8586 32bd 6f4b 7d3c 6998 77bd
000002d0: 21ac 8bbc 95ea 02bd 933d 403c b8fb 0ebc
000002e0: 8537 443a cd08 acbb 1e9e 07bd 3629 02bd
000002f0: 0801 78bd 44c1 873b 9b3d 833c ddb5 333c
00000300: 9da3 60bd 0375 9dbc 0f4b 60bd a39a 42bd
00000310: cae0 48bd 4c19 aabb 205b 4bbd 24d0 b8bc
00000320: f443 a0bc e9a2 0f3c d824 6bbd fa5b 5ebd
00000330: 2710 4abd 0c58 3d3c b2c0 1dbd aef2 983c
00000340: 75db 67bb 53ae 65bc a76f 9fbc 4632 dabc
00000350: 9895 28bc 1117 d3bc bd13 65bc cb06 cfbb
00000360: 7698 44bd 82ff 0cbd 37d5 f33c 8a76 3bbd
00000370: 2736 1fbc 7d41 293d 0f62 4b3c 69ad 2fbb
00000380: 26df 35bd 0735 aa3c 3679 12bd c563 71bc
00000390: 1261 87bc d943 e8bb 774a 8e3a 265a 243d
000003a0: 0891 eb3b c09e 343d 4703 fe3c 2dbe e0bc
000003b0: 2383 c53c f08f f9bc d633 89bc 0639 8e3c
000003c0: aa03 9d3c 9959 203d 9b62 3cbc a0b9 7c3b
000003d0: ef69 e53c 8c81 2bbd 497f 1c3d 3777 0fbd
000003e0: 1259 a03b 626a 6cbb 2fe8 a6bc 6ae8 313c
000003f0: 07ec 323d 4c13 16bc 5f81 bfbc e779 52bc
-0.015374228 0.010070198 -0.05453661 -0.05061318 -0.034250103 -0.0035148147 -0.017377404 0.020922886
-0.020864008 -0.0041662357 -0.03100166 -0.025753373 -0.06146214 -0.04749111 -0.035567734 -0.014138546
0.0032605468 0.013244868 -0.046776574 -0.034881484 0.0033279655 0.025850983 -0.022883842 0.022672318
-0.019837223 -0.006796481 0.03148273 -0.054757323 -0.040058214 -0.021759551 -0.027923739 0.03161881
-0.038771924 -0.029828751 -0.041109726 -0.052249633 -0.03550299 0.032610733 0.013075691 0.014718629
-0.0057433527 -0.032504257 -0.00024295537 -0.05245319 -0.04263942 -0.032728847 0.021535102 0.01945315
-0.02919118 -0.009843297 0.022137247 0.038866114 0.01073797 -0.0018100156 0.02358529 -0.03591113
0.00073095073 -0.044960734 -0.041140832 -0.032844346 0.012809705 0.010209291 -0.03695374 0.005113177
0.016709974 -0.015307914 -0.0075075063 0.0017308622 0.020167068 0.036319386 -0.045605652 -0.026340615
0.00972397 0.030387508 0.032536384 0.03322129 0.0008724655 -0.04960419 -0.004173561 -0.038142163
-0.052656345 0.03320059 0.026838986 -0.05656798 -0.0007155909 -0.017730843 -0.017593136 -0.031589165
0.007964855 -0.038655736 0.006365368 0.012780839 0.022697499 0.006380433 -0.058242388 -0.042157255
0.012074814 -0.0016972617 -0.048586726 -0.03901815 0.032758668 0.019964825 -0.03278717 -0.024060976
-0.05720458 -0.012861686 -0.047520153 -0.048488133 -0.014548386 -0.004802785 -0.03120852 0.016425846
-0.040374205 0.03148049 0.021099033 -0.051281903 -0.023031596 -0.008852709 -0.004168653 0.00023593631
0.007480752 -0.008126812 -0.0340965 0.0111217415 -0.05667123 -0.03905393 -0.023055345 -0.034097772
-0.027673984 -0.050030474 -0.021785438 -0.0015357555 -0.042534884 -0.014148787 0.022240847 -0.01660509
-0.010631323 -0.015961986 -0.002478873 0.018131524 0.03278675 0.018048687 0.032759864 -0.015833212
-0.055381313 -0.035566885 0.018481828 -0.014553146 -0.03842126 -0.051614083 -0.06029223 -0.05621493
-0.026652891 0.00833175 0.00733222 -0.06454205 0.010113786 -0.056952167 -0.030624185 -0.040012855
-0.030493833 -0.031038132 -0.064538985 -0.0631881 -0.029945126 -0.02300234 -0.04515161 -0.0059195273
-0.066139184 -0.026687583 0.01831204 -0.04239412 0.01975717 -0.0056177564 -0.06537205 0.007267393
-0.027932363 -0.04358532 0.015459879 -0.060448084 -0.01704985 -0.031961996 0.01173343 -0.008727007
0.00074850797 -0.0052500726 -0.033109777 -0.031777583 -0.06054786 0.004142912 0.016020587 0.010968653
-0.054843534 -0.019220835 -0.05475908 -0.047510754 -0.0490425 -0.005191004 -0.04964745 -0.022560187
-0.019563653 0.008766868 -0.057408184 -0.054286934 -0.04933181 0.011556637 -0.038513847 0.018670406
-0.003537861 -0.014018613 -0.01946242 -0.0266353 -0.010289572 -0.025767835 -0.013981757 -0.0063179485
-0.04799696 -0.03442336 0.029764755 -0.045767345 -0.009717501 0.04132222 0.012413516 -0.0026806241
-0.044402264 0.020777239 -0.035760127 -0.01473326 -0.016525779 -0.007088166 0.0010855932 0.040125035
0.00718892 0.04409671 0.031007422 -0.027434433 0.024110382 -0.030464143 -0.01674835 0.017361175
0.019166786 0.039147947 -0.011498119 0.003856279 0.028004615 -0.041871592 0.038207326 -0.0350258
0.0048934305 -0.0036074151 -0.020374386 0.0108586345 0.043682124 -0.009159874 -0.023377119 -0.012846447

weight f4 [200]
00000000: e005 803f b681 773f 4089 7c3f e072 733f
00000010: bbe3 7b3f cc6d 7d3f 5b92 803f 8c1b 813f
00000020: d16e 843f 513b 833f 7e0a 843f 4df3 7c3f
00000030: 7ab5 7d3f 2e32 7f3f 9494 7c3f 846f 7e3f
00000040: 3f31 733f 544c 813f 8760 843f 3f27 803f
00000050: 8701 813f f699 803f fc3f 743f 84b6 803f
00000060: a555 7a3f c90a 7a3f 39ff 7a3f 157a 723f
00000070: 4c70 7f3f 409b 7f3f 13ba 7f3f 4da6 793f
00000080: f8c5 803f 5b15 793f de82 813f b78c 7e3f
00000090: 52cc 823f 847e 7c3f e60a 7e3f e6e4 7f3f
000000a0: c163 813f ac1a 803f 0879 813f da30 803f
000000b0: 2263 7d3f f09b 813f fde1 803f de30 803f
000000c0: 4225 823f 3a8c 7d3f 6054 7d3f c0bb 7a3f
000000d0: b2c0 813f 0771 853f 1e56 803f c58d 7c3f
000000e0: d473 803f 8dae 803f 8500 7c3f 0b7f 7e3f
000000f0: 0ced 783f 882f 823f a2a6 773f b230 7a3f
00000100: b18c 823f e14b 803f c59d 813f f344 803f
00000110: 9524 7d3f 1a30 853f d0fb 7b3f 1428 7f3f
00000120: 1580 7e3f 4b25 843f bf18 793f ac3a 823f
00000130: 0841 803f cb2a 7e3f d661 7e3f 2d16 843f
00000140: c647 793f 3151 7b3f fdb7 823f 4bd9 7a3f
00000150: 0ee5 7b3f d8d6 813f 3c6f 7c3f 221d 7d3f
00000160: adf8 7c3f 3376 813f cdb8 803f 44a7 7b3f
00000170: 58de 813f 3069 7c3f 33e2 803f 13d9 7b3f
00000180: ef50 7e3f e7d7 833f 29f1 813f 917a 773f
00000190: 6c1f 7c3f c09d 873f 3046 833f c926 803f
000001a0: d7d7 813f eb96 823f 4565 803f 3a1f 803f
000001b0: b8b5 803f 2c6d 813f 5995 7e3f 9cbb 803f
000001c0: 58ff 853f b597 7c3f ebff 853f 22f7 823f
000001d0: 2155 7a3f e885 7a3f 6ed8 813f 701f 813f
000001e0: 9ac9 7f3f 8914 823f 884b 7a3f de53 813f
000001f0: b62c 813f 158b 7d3f 1425 803f 740f 7e3f
00000200: df59 843f 683a 833f 0c08 803f c124 833f
00000210: ae0c 823f 8710 803f 808a 7d3f 0f8b 783f
00000220: f3f2 793f f49b 763f af74 703f 6067 7d3f
00000230: 1fa1 793f 4adc 813f 53bc 7e3f 68ca 803f
00000240: 6f78 7f3f 4f7b 7e3f 3952 7e3f ef56 7d3f
00000250: dba3 7e3f da9c 793f 248f 803f f685 7e3f
00000260: 4f1e 7c3f 6b14 883f 25df 793f ba0a 7d3f
00000270: 52ff 803f b25d 7f3f 9976 7e3f 8d4e 833f
00000280: 8b76 853f 7708 843f ac9e 7c3f 6607 813f
00000290: a9f8 7d3f c024 7b3f c608 823f 5695 7c3f
000002a0: 848d 7e3f c927 813f 042a 793f 1a8e 7f3f
000002b0: 9a7d 803f 05e0 7a3f 51b4 7d3f 3022 823f
000002c0: 1eb5 813f 4604 773f 9a85 7b3f ea45 7d3f
000002d0: 15ae 823f f1bc 7b3f f644 833f 9d1e 7c3f
000002e0: b44f 803f 9188 833f 99ff 793f 606b 7f3f
000002f0: 3579 7e3f abeb 853f 358a 7d3f 0760 803f
00000300: eae3 813f 86eb 7b3f d016 7e3f 6b5e 853f
00000310: b975 783f 0abb 813f 0520 823f e16b 833f
1.0001793 0.966823 0.98646927 0.9509716 0.98394364 0.9899566 1.0044664 1.0086532
1.0346318 1.0252477 1.0315702 0.9880875 0.99105036 0.99685943 0.9866421 0.9938891
0.9499702 1.0101418 1.0341958 1.0011977 1.0078591 1.0046985 0.9541013 1.0055699
0.97786933 0.97672707 0.9804569 0.9471753 0.99780726 0.9984627 0.998933 0.9751938
1.0060415 0.9729821 1.0118062 0.99433464 1.0218604 0.9863055 0.9923538 0.99958646
1.0108567 1.000814 1.0115061 1.0014908 0.9897939 1.0125713 1.0068966 1.0014913
1.016762 0.99042094 0.9895687 0.97942734 1.0136931 1.0425118 1.0026281 0.98653823
1.0035348 1.0053269 0.9843829 0.994126 0.97236705 1.0170755 0.96738636 0.97730553
1.0199186 1.0023156 1.0126272 1.0021042 0.98883945 1.0405304 0.9843111 0.9967053
0.9941419 1.0323881 0.97303385 1.0174155 1.0019846 0.99284047 0.99368036 1.0319268
0.9737514 0.98170763 1.0212399 0.9798781 0.98396385 1.014369 0.9860723 0.9887258
0.9881695 1.0114197 1.0056397 0.983021 1.0145979 0.98598003 1.006903 0.98378104
0.99342245 1.0300263 1.0151721 0.96671396 0.98485446 1.0595016 1.0255795 1.0011836
1.0143994 1.0202307 1.0030905 1.000953 1.0055456 1.0111442 0.99446636 1.0057254
1.046855 0.98668987 1.0468725 1.0231669 0.97786146 0.97860575 1.0144174 1.0087719
0.99916995 1.0162517 0.977715 1.0103719 1.009177 0.9904035 1.0011315 0.9924233
1.0339926 1.0252199 1.0002456 1.0245591 1.016012 1.0005044 0.9903946 0.97087187
0.97636336 0.96331716 0.93928045 0.9898586 0.97511476 1.0145352 0.9950611 1.006177
0.9979314 0.99406904 0.9934421 0.98960775 0.99468774 0.9750496 1.0043683 0.9942316
0.9848375 1.0631231 0.97606117 0.9884449 1.0077918 0.9975234 0.99399716 1.0258347
1.0426801 1.0315083 0.98679614 1.0080383 0.9920755 0.9810295 1.0158927 0.9866537
0.99434686 1.0090266 0.97329736 0.99826205 1.003833 0.97998077 0.99103266 1.0166683
1.0133398 0.96490896 0.98250735 0.98934805 1.0209376 0.98335177 1.025542 0.9848421
1.0024323 1.0276052 0.97655636 0.99773216 0.994037 1.0462545 0.9903901 1.0029305
1.0147679 0.98406255 0.9925356 1.0419439 0.9705463 1.0135205 1.0166022 1.0267297

bias f4 [200]
00000000: 136b 143d 012a 5abc d856 d83c 7697 a13c
00000010: 35c7 043d b5c1 b6ba 1dc8 6c3c 4712 72bc
00000020: a659 e73c e3bc 0fbd cf26 233b fffd 2a3c
00000030: 902e 07bd ade0 763d f0e9 2ebc df22 a63c
00000040: 9929 40bc 69c0 9fbb 19d6 afbc 157a 313c
00000050: d2bc 01bd 9251 d93b 7ae2 f03c f72b 1dbd
00000060: 4b3b 8eba 24eb 363d e7a7 673d 6029 eb3c
00000070: 6006 ad3b 7ce4 193d 794c 2b3c 2a02 a93d
00000080: 20d2 c9bc 65db f53c d512 55bd f028 0e3d
00000090: d202 5ebc c156 a23c a6f2 47bb aed8 5d3c
000000a0: 380e c13c fb77 83bc 0f57 433d b562 bdbc
000000b0: 83dc 37bd 84f5 bf3c 7a43 803b 2359 863c
000000c0: 0dfe 403b 5de1 3e3c 6258 06bd b036 f63b
000000d0: da20 10bd eb8a d9bc 0cc9 463c 772b 133d
000000e0: c2dc ed3a 8da1 f13b 649c 9dbb 679a dbbc
000000f0: 84ea 413d 21b6 c43b 023e e2bb c84c 533d
00000100: 1e8b 263d 1c32 b9bc 8778 6bbd 5950 2cbd
00000110: 80b8 153d cac2 8c3c 177b 0abd 907c c8bc
00000120: aa96 f63b 0395 f2bc 29dd 483d fa09 72bc
00000130: 34a8 693c 5074 04bb 30c1 20bd 9829 dc3b
00000140: be6a e4bb 3840 2fbd fc88 1dbc b8b8 6fbd
00000150: 4fda 5d3c 5437 1cbd 5635 afbc 48ea e23c
00000160: cfe4 4dbd 64c7 0e3c d10f d0bc 67c3 f13c
00000170: 6d6c db3b 52cc c7bb 90ad 86bc 7455 b13c
00000180: 45dd 3c3c 5eb6 13bd 38b1 d9ba 3e85 22bd
00000190: 98d4 813c 0c81 39bc 68c8 9a3c 02d0 93bc
000001a0: 5143 ed3c e96e 9abb 090c 0f3b bf8c 9d3c
000001b0: f3ab 5b3c a6df 04bc 455c 81bc 14c9 74bc
000001c0: e66e dfbc 2089 d03b 8ced 683c 41aa fabb
000001d0: f5fc 183d 5fff 873c 5142 ee3b c59e 4bbd
000001e0: 90c9 283c 4f0e bd3c 10d2 523b 99bc 9ebc
000001f0: 5d74 e53a a224 a13c 0b64 0b3d f9da 8d3c
00000200: 2488 81bc 0870 64bc 3cce c4bc 87a2 7b3c
00000210: 004e 3abb a72b 0d3c cc0c 02bc 776f f9ba
00000220: 3bb2 38bd f363 143d 9e5b 5cba 50ec f1bb
00000230: 06b6 2f3c 0cba e3bc 80d1 a23c da31 1f3c
00000240: da61 c3bc cc7a fcbc c14a 9f3c 20ce c43a
00000250: 90c4 a6bc 4833 95bb 3438 9bbc 754b 0bbd
00000260: 0b72 dd3c c666 63bb 65ac 613c a425 01bd
00000270: 0609 f6bb 7716 5ebc 5629 13bc bd84 3f3c
00000280: 65d0 03bd 6bdc 5fbd bf7e 2c3d 2a5d 1bbd
00000290: 748f 93bb 99a9 1fbc cad8 72bc f4cc 673d
000002a0: bb92 1abd fd6f 9fbd 4e72 27bd 2401 ccbd
000002b0: e068 043d 1e48 2abb 74f8 213d ff6d d23c
000002c0: 2d46 3e3c 457b 1abd 2b70 243d a234 8c3c
000002d0: 9a12 c13b 43a5 23bd 7ac8 133d b73f 1d3d
000002e0: 3fd2 86bc e269 2cbc d37a e2bc e925 18bd
000002f0: 71f9 0d3d 921e 953c 429a 6eba 9fd3 b6bc
00000300: 31c1 be3b ad57 04bd a6e0 9a3c 0171 bcbb
00000310: 1501 8c3c bbae 2dbc 4c6d 303d cf56 823d
0.036234926 -0.013315679 0.026408598 0.019725543 0.03241654 -0.0013943227 0.014452008 -0.0147748655
0.02824099 -0.035092246 0.0024894958 0.010436534 -0.03300339 0.06027286 -0.010675892 0.0202803
-0.011728668 -0.004875232 -0.021464394 0.010832329 -0.031674214 0.0066320384 0.029404867 -0.038372006
-0.0010851411 0.04465784 0.05655661 0.028706253 0.005280301 0.037571415 0.010455244 0.08252366
-0.024636328 0.030011842 -0.052019913 0.03470701 -0.013550477 0.019816758 -0.003050962 0.01354043
0.02356635 -0.016048422 0.047690447 -0.023118356 -0.04488803 0.0234325 0.003914294 0.016399926
0.00294483 0.0116504105 -0.032799132 0.0075138435 -0.03518758 -0.026555499 0.012132894 0.035930123
0.0018147456 0.0073739947 -0.004809903 -0.026807023 0.047342792 0.006003157 -0.0069043646 0.051586896
0.040660016 -0.022606902 -0.05748799 -0.042068813 0.036552906 0.017182726 -0.033808794 -0.024473459
0.007525285 -0.02961207 0.04903904 -0.014772886 0.014261294 -0.002021093 -0.039246738 0.0067188255
-0.0069707325 -0.042785853 -0.009615179 -0.05852577 0.013540818 -0.038138703 -0.021387737 0.027699605
-0.050267037 0.008714531 -0.025398167 0.02951212 0.006696275 -0.006097355 -0.016440183 0.021647193
0.011527364 -0.03606259 -0.0016608601 -0.03967785 0.015848443 -0.011322271 0.01889439 -0.018043522
0.028962763 -0.0047129286 0.0021827242 0.019232152 0.013407695 -0.008109963 -0.015791068 -0.014940519
-0.02727456 0.006364003 0.014216792 -0.0076496904 0.037350614 0.016601263 0.007271089 -0.04971196
0.0103019625 0.023078112 0.0032168664 -0.01937704 0.0017505992 0.019670788 0.034030955 0.017316328
-0.015811987 -0.013942726 -0.024024121 0.015358574 -0.002842784 0.008616365 -0.007937621 -0.0019030411
-0.04509185 0.03622813 -0.0008405986 -0.007382907 0.01072455 -0.027798675 0.019875288 0.009716475
-0.02385037 -0.030820273 0.019444825 0.0015015043 -0.0203574 -0.0045532323 -0.018947698 -0.03400751
0.027031919 -0.003469871 0.013774012 -0.031530038 -0.0075084 -0.013555161 -0.008982023 0.011689362
-0.032181162 -0.054653566 0.042113062 -0.037930645 -0.004503185 -0.009745025 -0.014822194 0.056591943
-0.03773759 -0.07785032 -0.040880494 -0.09961155 0.03232658 -0.0025982927 0.039543584 0.025687216
0.011613411 -0.037715215 0.040146034 0.017114941 0.00589211 -0.039952528 0.03607986 0.03839084
-0.016457675 -0.010523291 -0.027646458 -0.03714553 0.034661714 0.018203054 -0.00091019657 -0.022317706
0.00582137 -0.032310177 0.018905949 -0.005750776 0.01709036 -0.010600741 0.043072984 0.06364214

running_mean f4 [200]
00000000: cc2d 903f 140d 723f 2aad 1640 054f b03f
00000010: db2d 1340 495f 8d3f d0e0 6d3f e439 b43f
00000020: a35f bb3f ddb2 8e3f 209b cd3f 6f0b d73f
00000030: ec2e da3f 8c92 1b40 1001 bd3f d5d2 b63f
00000040: 4007 933f 9ab5 983f ed77 073f 8955 0d40
00000050: 9610 c63f 9b7e ba3f e8ae 943f 86d0 823f
00000060: e081 ca3f 087b 1a40 e0d9 f03f 3b8a a93f
00000070: fd9d f73f c672 823f 3ecb 493f badd ca3f
00000080: dca4 4f40 ce89 0140 ada4 793f 2934 1b40
00000090: af71 1340 d89a 1540 9c0f b03f 28c1 c43f
000000a0: a15d 4840 bafb c33f 59d4 783f 50c7 a13f
000000b0: 4bf3 2440 8142 2440 deb5 4340 7645 3740
000000c0: a499 8c3f 776a 1140 4d02 d63f 56e3 0940
000000d0: 028c 373f f1b8 933f 1e54 b33f 1af5 2440
000000e0: f22c e43f 398a 2a3f 6f17 323f 1a79 ca3f
000000f0: 6692 923f 84e4 4f3f 8e9c 0140 c2c3 a23f
00000100: a8be c73f 5d85 f03f f46c 8a3f a17e 1f40
00000110: 4855 cd3f b54b 583f fa6c 803f 7feb 973f
00000120: 2301 973f 7086 d83f 1eb3 d53f ad23 943f
00000130: 2950 8d3f 4273 393f 04d8 303f e444 3b3f
00000140: 2efb 513f 3ae1 ee3f b3a5 bd3f f487 b23f
00000150: 3d87 ec3f 4e83 183f 5c5b 703f ed8a 2740
00000160: 0569 9e3f ca6e 873f b8ec 1b40 45e3 4f3f
00000170: b816 ba3f a8a3 0340 1403 063f 77ea 0c40
00000180: 3261 ac3f 7aad 363f ec8c 0440 8baf e23f
00000190: ca22 0440 980d 803f 43a0 6c3f 90d9 3f3f
000001a0: 12b9 873f 94b3 903f d6d2 a13f e200 b33f
000001b0: da5e ee3f 0801 9d3f 34c1 973f 82c2 923f
000001c0: e06d 383f a30f 0b40 3f62 403f 91fb b13f
000001d0: bc31 803f f0fa e43f 647d 9d3f d296 ee3f
000001e0: 0144 db3f 3cc6 b73f cdfd e43f ce76 8f3f
000001f0: 84c1 7a3f 4755 6440 2282 963f 21e3 b83f
00000200: 590b 783f 68fc ad3f 0619 cf3f 5778 5c3f
00000210: 554f a63f f1ae 1740 5099 753f 4f4f 603f
00000220: caa9 7c3f 849f 7e3f 3d04 1540 def2 f03f
00000230: 074f fb3e 8944 173f 5e36 433f ecc7 433f
00000240: fc71 993f 1c0c d63f c6af f23f 4049 3f40
00000250: 705b 0b40 84fe de3f b2f7 793f d170 eb3f
00000260: 02b1 0440 7ab8 653f 8230 cd3f d86e 5d3f
00000270: df91 7f3f 8f02 b03f cf4d 843f 38f9 bf3f
00000280: 0cb4 793f ea7a 983f ca6d a63f 8f53 4f3f
00000290: cda8 a23f 5ece 2240 ea54 a63f 3942 953f
000002a0: 1546 0d40 e697 583f a04f e63f 35e7 1f3f
000002b0: 1aed 323f 08f6 b23f eeda 6e3f af1d 9b3f
000002c0: 1cf0 b73f 9b70 db3f 6456 f23f cb26 043f
000002d0: 8976 2a3f f8e2 e03f e7d8 973f 0064 2640
000002e0: 5059 0d40 7dd9 713f 4018 0740 546b ed3f
000002f0: dcf8 163f e32f 913f b2b8 683f b994 0240
00000300: f834 cc3f b57d fe3f 4e7b d13f 2973 763f
00000310: 6a2c b03f db30 903f 0d56 8c3f cb28 c73f
1.1263976 0.94551206 2.354319 1.3774115 2.2996738 1.1044704 0.9292116 1.4080167
1.4638561 1.1148335 1.6062965 1.6800364 1.704557 2.4308195 1.4765949 1.4283091
1.1486588 1.193042 0.5291737 2.2083457 1.5473812 1.4569887 1.1615877 1.0219886
1.5820885 2.4137592 1.881649 1.324531 1.9345089 1.0191276 0.7882575 1.5848916
3.2444372 2.024036 0.975169 2.4250586 2.3038137 2.337576 1.3754764 1.5371447
3.1307147 1.5311196 0.97199017 1.263895 2.5773494 2.566559 3.0579753 2.8636146
1.0984387 2.272123 1.6719452 2.1545005 0.7169801 1.1540815 1.4010046 2.5774598
1.7826216 0.6661716 0.69567007 1.5818207 1.1450927 0.8120806 2.0251803 1.271599
1.5605059 1.8790699 1.08145 2.4921038 1.6041651 0.8449052 1.0033257 1.1868743
1.1797222 1.6916027 1.6695287 1.1573387 1.1040088 0.72441494 0.69079614 0.73151994
0.82023895 1.8662484 1.4816192 1.394774 1.8478771 0.59575355 0.93889403 2.6178544
1.23758 1.0580685 2.4363232 0.8120616 1.4538183 2.0568638 0.52348447 2.2018106
1.3467162 0.71358454 2.0711012 1.7709821 2.0646234 1.0004148 0.9243204 0.7494135
1.0603354 1.1304803 1.2642467 1.3984644 1.8622696 1.226594 1.1855836 1.1465609
0.72042656 2.1728294 0.7514991 1.3904897 1.0015178 1.788908 1.2303891 1.8639777
1.7130128 1.4357371 1.7889954 1.1208131 0.9795153 3.567705 1.1758463 1.4444314
0.96892315 1.3592653 1.6179512 0.86121124 1.299296 2.3700526 0.9593706 0.87621015
0.9869658 0.9946215 2.3283837 1.8824117 0.4908373 0.5908895 0.7625483 0.7647693
1.198791 1.6722445 1.8959892 2.9888458 2.177456 1.7421422 0.9764358 1.8393804
2.0733037 0.89734614 1.6030428 0.8649726 0.99831957 1.3750781 1.0336245 1.499793
0.97540355 1.191251 1.3002255 0.80986875 1.2707764 2.5438457 1.2994664 1.1660835
2.2074025 0.8460678 1.799305 0.6246217 0.6989304 1.3981333 0.9330281 1.2118434
1.437015 1.714374 1.8932614 0.51621693 0.6658712 1.7569265 1.1863068 2.5998535
2.2085762 0.94472486 2.110855 1.8548379 0.5897348 1.1342739 0.9090682 2.0403273
1.5953665 1.9882113 1.6365755 0.9626947 1.3763554 1.126491 1.0963761 1.5559324

running_var f4 [200]
00000000: 2f1a 4b40 f082 eb3f 0290 6741 3fdb 5440
00000010: b21a 2b41 9ffc 7240 45a2 bc3f de6a b740
00000020: 751a 8640 2a08 e13f e696 8f40 d3a2 a140
00000030: 3fbf e040 388e 3d41 3f9d a440 10f7 9540
00000040: 84c0 7b40 bc32 4d40 ee8c 493f 474d 0941
00000050: 148c 9740 1c09 6240 ba6b 2940 48ba 3540
00000060: e23d 9a40 d740 7d41 acac d440 dcf1 5e40
00000070: 7d4b e940 be99 0740 aebe 6b3f 5c92 9440
00000080: cf9c 9841 c8ff 1141 a5e4 e93f 3de7 6541
00000090: b921 1b41 892a 2441 ced0 a940 e543 9740
000000a0: 85da d941 21ec d940 3d49 5b40 2bf4 8540
000000b0: d1cc 8941 c913 ad41 4f86 9441 7600 7041
000000c0: 1db9 0e40 2926 6f41 3df1 9d40 b17b 3e41
000000d0: 2a21 b83f f790 2f40 59d7 6440 4c61 4241
000000e0: bb83 fe40 5927 9a3f 208b 913f f7e4 9840
000000f0: bb62 1440 e8ca 8f3f 2373 5541 a171 9740
00000100: ef43 e240 7bb5 1b41 65af 1340 4fa4 3b41
00000110: 7901 b640 bddd be3f 60e5 0840 c00e 5040
00000120: 2f2b 6240 8b4f a340 39ef f140 1578 6140
00000130: 2924 2240 17fd d13f d366 a43f bcf7 b03f
00000140: 3e33 e83f f41d 1641 1d52 d540 37de 7b40
00000150: e216 bc40 0460 783f 0fb6 d43f 9015 5541
00000160: 2cab 8040 ff21 0e40 c6d3 8d41 1c80 0740
00000170: 5148 dd40 21a7 0241 5bf2 c33e 7e9a 0f41
00000180: 1811 9840 780d 9c3f 5690 2f41 4489 e840
00000190: a3c5 3241 d8d1 5f40 f928 5d40 4437 c43f
000001a0: 7427 1840 1ddc 3a40 4b2d 4740 f8e7 c240
000001b0: acf6 1341 cd71 9b40 b8ec 8e40 fc04 7540
000001c0: 3452 1e3f 2cd1 1341 eb75 b03f 4ffd 6d40
000001d0: befa 2640 eb86 c840 6597 8740 a3c5 ed40
000001e0: dff7 a040 8bc6 a540 e9b8 c340 3952 6c40
000001f0: ea1f 3540 ac44 0842 dad9 1140 817a c440
00000200: 25ba e93f f9bc a540 b1f9 8e40 8b1f 2540
00000210: 8bad 3c40 566a 5b41 ddd9 ef3f a585 e63f
00000220: 8d50 2b40 75c3 e53f 5f77 7241 4298 0b41
00000230: 75f4 323f b878 883f 374b de3f 111e a23f
00000240: e6bf 8040 76e1 f940 962e db40 53a0 8b41
00000250: 097c 2f41 f142 e640 a4ba 1c40 cf6f d640
00000260: 30af 4141 2d28 4540 db8f 8d40 3aef cb3f
00000270: 790f f63f 080a bc40 8119 2840 7263 bc40
00000280: c518 5f40 5296 3d40 563e 3140 fe6a da3f
00000290: 633c ac40 420b 8f41 b432 2d40 a139 1340
000002a0: 18ab 6341 57fc a03f b370 2e41 9406 bc3f
000002b0: 72c4 263f 9b4e b940 f5c0 bd3f e092 7540
000002c0: ea67 b840 e476 b040 c920 c940 47bc 873f
000002d0: 3350 3e3f b795 d040 7007 8140 4852 5341
000002e0: 7299 4041 5469 2a40 79bd 1841 a0a6 0141
000002f0: f359 893f 9793 5040 43d0 1540 fb84 2541
00000300: 46d2 c140 5572 0441 dd6d b840 37fd 3640
00000310: 3ff6 5f40 2834 6e40 9026 5840 6154 a740
3.1734731 1.8399334 14.472658 3.3258817 10.694017 3.7966688 1.4737021 5.7317953
4.1907296 1.7580616 4.48717 5.051126 7.0233455 11.847221 5.144195 4.686409
3.9336252 3.2062216 0.78730667 8.581367 4.7358494 3.531806 2.6472 2.8394947
4.820054 15.82833 6.646078 3.483512 7.290465 2.1187587 0.9208783 4.642866
19.076567 9.124947 1.8272902 14.368955 9.695733 10.260385 5.306739 4.727038
27.231699 6.8100743 3.426345 4.1860557 17.225008 21.63466 18.56558 15.000113
2.2300484 14.946816 4.935698 11.905198 1.4385121 2.743223 3.5756438 12.148754
7.9535804 1.2043258 1.1370583 4.77795 2.318526 1.1233797 13.34061 4.7326207
7.0707927 9.731807 2.3075802 11.727614 5.68768 1.4911419 2.139 3.2509003
3.5338857 5.10346 7.560452 3.5229542 2.533457 1.6405362 1.284388 1.3825603
1.8140638 9.382313 6.6662736 3.935438 5.8777933 0.9702151 1.661806 13.317764
4.020895 2.220825 17.728405 2.1171942 6.9150777 8.165803 0.3827084 8.975218
4.7520866 1.219161 10.972738 7.266756 11.173251 3.4971828 3.4556258 1.5329366
2.377408 2.9196846 3.1121395 6.0908165 9.247723 4.8576417 4.4663963 3.8284292
0.6184418 9.238567 1.3785986 3.7185857 2.609054 6.2664695 4.237231 7.4303756
5.0302577 5.180486 6.116322 3.6925185 2.8300729 34.067062 2.2789216 6.139954
1.8259932 5.179318 4.46798 2.5800502 2.9480922 13.713461 1.8738362 1.8009535
2.6767914 1.7950274 15.154143 8.724672 0.6990426 1.066184 1.7366704 1.2665426
4.023425 7.808772 6.8494368 17.453283 10.967782 7.1956716 2.4488916 6.7011485
12.10527 3.0805771 4.4238105 1.5932381 1.9223472 5.8762245 2.6265566 5.8871393
3.4858868 2.9622998 2.7694297 1.7063901 5.3823714 17.880497 2.7062197 2.3003924
14.229271 1.2577008 10.902514 1.4689507 0.651435 5.7908454 1.4824511 3.8370895
5.762685 5.514513 6.285252 1.0604333 0.74341124 6.5182757 4.032158 13.207588
12.037462 2.6626787 9.546258 8.10318 1.0730575 3.2590082 2.3408363 10.344966
6.056918 8.277913 5.763411 2.859205 3.4994047 3.7219334 3.3773537 5.22905
